…
    model = ResNet18((28,28,3), num_classes = num_classes)
    model.summary()

    Model: "model"
    __________________________________________________________________________________________________
     Layer (type)                Output Shape                 Param #   Connected to                  
    ==================================================================================================
     input_1 (InputLayer)        [(None, 28, 28, 3)]          0         []                            
                                                                                                      
     conv2d (Conv2D)             (None, 14, 14, 64)           9472      ['input_1[0][0]']             
                                                                                                      
     w_nc (WNc)                  (None, 14, 14, 64)           704       ['conv2d[0][0]']              
                                                                                                      
     activation (Activation)     (None, 14, 14, 64)           0         ['w_nc[0][0]']                
                                                                                                      
     max_pooling2d (MaxPooling2  (None, 7, 7, 64)             0         ['activation[0][0]']          
     D)                                                                                               
                                                                                                      
     conv2d_2 (Conv2D)           (None, 7, 7, 64)             36928     ['max_pooling2d[0][0]']       
                                                                                                      
     w_nc_1 (WNc)                (None, 7, 7, 64)             704       ['conv2d_2[0][0]']            
                                                                                                      
     activation_1 (Activation)   (None, 7, 7, 64)             0         ['w_nc_1[0][0]']              
                                                                                                      
     conv2d_3 (Conv2D)           (None, 7, 7, 64)             36928     ['activation_1[0][0]']        
                                                                                                      
     conv2d_1 (Conv2D)           (None, 7, 7, 64)             4160      ['max_pooling2d[0][0]']       
                                                                                                      
     w_nc_2 (WNc)                (None, 7, 7, 64)             704       ['conv2d_3[0][0]']            
                                                                                                      
     add (Add)                   (None, 7, 7, 64)             0         ['conv2d_1[0][0]',            
                                                                         'w_nc_2[0][0]']              
                                                                                                      
     activation_2 (Activation)   (None, 7, 7, 64)             0         ['add[0][0]']                 
                                                                                                      
     conv2d_4 (Conv2D)           (None, 7, 7, 64)             36928     ['activation_2[0][0]']        
                                                                                                      
     w_nc_3 (WNc)                (None, 7, 7, 64)             704       ['conv2d_4[0][0]']            
                                                                                                      
     activation_3 (Activation)   (None, 7, 7, 64)             0         ['w_nc_3[0][0]']              
                                                                                                      
     conv2d_5 (Conv2D)           (None, 7, 7, 64)             36928     ['activation_3[0][0]']        
                                                                                                      
     w_nc_4 (WNc)                (None, 7, 7, 64)             704       ['conv2d_5[0][0]']            
                                                                                                      
     add_1 (Add)                 (None, 7, 7, 64)             0         ['activation_2[0][0]',        
                                                                         'w_nc_4[0][0]']              
                                                                                                      
     activation_4 (Activation)   (None, 7, 7, 64)             0         ['add_1[0][0]']               
                                                                                                      
     conv2d_7 (Conv2D)           (None, 4, 4, 128)            73856     ['activation_4[0][0]']        
                                                                                                      
     w_nc_5 (WNc)                (None, 4, 4, 128)            1408      ['conv2d_7[0][0]']            
                                                                                                      
     activation_5 (Activation)   (None, 4, 4, 128)            0         ['w_nc_5[0][0]']              
                                                                                                      
     conv2d_8 (Conv2D)           (None, 4, 4, 128)            147584    ['activation_5[0][0]']        
                                                                                                      
     conv2d_6 (Conv2D)           (None, 4, 4, 128)            8320      ['activation_4[0][0]']        
                                                                                                      
     w_nc_6 (WNc)                (None, 4, 4, 128)            1408      ['conv2d_8[0][0]']            
                                                                                                      
     add_2 (Add)                 (None, 4, 4, 128)            0         ['conv2d_6[0][0]',            
                                                                         'w_nc_6[0][0]']              
                                                                                                      
     activation_6 (Activation)   (None, 4, 4, 128)            0         ['add_2[0][0]']               
                                                                                                      
     conv2d_9 (Conv2D)           (None, 4, 4, 128)            147584    ['activation_6[0][0]']        
                                                                                                      
     w_nc_7 (WNc)                (None, 4, 4, 128)            1408      ['conv2d_9[0][0]']            
                                                                                                      
     activation_7 (Activation)   (None, 4, 4, 128)            0         ['w_nc_7[0][0]']              
                                                                                                      
     conv2d_10 (Conv2D)          (None, 4, 4, 128)            147584    ['activation_7[0][0]']        
                                                                                                      
     w_nc_8 (WNc)                (None, 4, 4, 128)            1408      ['conv2d_10[0][0]']           
                                                                                                      
     add_3 (Add)                 (None, 4, 4, 128)            0         ['activation_6[0][0]',        
                                                                         'w_nc_8[0][0]']              
                                                                                                      
     activation_8 (Activation)   (None, 4, 4, 128)            0         ['add_3[0][0]']               
                                                                                                      
     conv2d_12 (Conv2D)          (None, 2, 2, 256)            295168    ['activation_8[0][0]']        
                                                                                                      
     w_nc_9 (WNc)                (None, 2, 2, 256)            2816      ['conv2d_12[0][0]']           
                                                                                                      
     activation_9 (Activation)   (None, 2, 2, 256)            0         ['w_nc_9[0][0]']              
                                                                                                      
     conv2d_13 (Conv2D)          (None, 2, 2, 256)            590080    ['activation_9[0][0]']        
                                                                                                      
     conv2d_11 (Conv2D)          (None, 2, 2, 256)            33024     ['activation_8[0][0]']        
                                                                                                      
     w_nc_10 (WNc)               (None, 2, 2, 256)            2816      ['conv2d_13[0][0]']           
                                                                                                      
     add_4 (Add)                 (None, 2, 2, 256)            0         ['conv2d_11[0][0]',           
                                                                         'w_nc_10[0][0]']             
                                                                                                      
     activation_10 (Activation)  (None, 2, 2, 256)            0         ['add_4[0][0]']               
                                                                                                      
     conv2d_14 (Conv2D)          (None, 2, 2, 256)            590080    ['activation_10[0][0]']       
                                                                                                      
     w_nc_11 (WNc)               (None, 2, 2, 256)            2816      ['conv2d_14[0][0]']           
                                                                                                      
     activation_11 (Activation)  (None, 2, 2, 256)            0         ['w_nc_11[0][0]']             
                                                                                                      
     conv2d_15 (Conv2D)          (None, 2, 2, 256)            590080    ['activation_11[0][0]']       
                                                                                                      
     w_nc_12 (WNc)               (None, 2, 2, 256)            2816      ['conv2d_15[0][0]']           
                                                                                                      
     add_5 (Add)                 (None, 2, 2, 256)            0         ['activation_10[0][0]',       
                                                                         'w_nc_12[0][0]']             
                                                                                                      
     activation_12 (Activation)  (None, 2, 2, 256)            0         ['add_5[0][0]']               
                                                                                                      
     conv2d_17 (Conv2D)          (None, 1, 1, 512)            1180160   ['activation_12[0][0]']       
                                                                                                      
     w_nc_13 (WNc)               (None, 1, 1, 512)            5632      ['conv2d_17[0][0]']           
                                                                                                      
     activation_13 (Activation)  (None, 1, 1, 512)            0         ['w_nc_13[0][0]']             
                                                                                                      
     conv2d_18 (Conv2D)          (None, 1, 1, 512)            2359808   ['activation_13[0][0]']       
                                                                                                      
     conv2d_16 (Conv2D)          (None, 1, 1, 512)            131584    ['activation_12[0][0]']       
                                                                                                      
     w_nc_14 (WNc)               (None, 1, 1, 512)            5632      ['conv2d_18[0][0]']           
                                                                                                      
     add_6 (Add)                 (None, 1, 1, 512)            0         ['conv2d_16[0][0]',           
                                                                         'w_nc_14[0][0]']             
                                                                                                      
     activation_14 (Activation)  (None, 1, 1, 512)            0         ['add_6[0][0]']               
                                                                                                      
     conv2d_19 (Conv2D)          (None, 1, 1, 512)            2359808   ['activation_14[0][0]']       
                                                                                                      
     w_nc_15 (WNc)               (None, 1, 1, 512)            5632      ['conv2d_19[0][0]']           
                                                                                                      
     activation_15 (Activation)  (None, 1, 1, 512)            0         ['w_nc_15[0][0]']             
                                                                                                      
     conv2d_20 (Conv2D)          (None, 1, 1, 512)            2359808   ['activation_15[0][0]']       
                                                                                                      
     w_nc_16 (WNc)               (None, 1, 1, 512)            5632      ['conv2d_20[0][0]']           
                                                                                                      
     add_7 (Add)                 (None, 1, 1, 512)            0         ['activation_14[0][0]',       
                                                                         'w_nc_16[0][0]']             
                                                                                                      
     activation_16 (Activation)  (None, 1, 1, 512)            0         ['add_7[0][0]']               
                                                                                                      
     global_average_pooling2d (  (None, 512)                  0         ['activation_16[0][0]']       
     GlobalAveragePooling2D)                                                                          
                                                                                                      
     dense (Dense)               (None, 9)                    4617      ['global_average_pooling2d[0][
                                                                        0]']                          
                                                                                                      
    ==================================================================================================
    Total params: 11223433 (42.81 MB)
    Trainable params: 11223433 (42.81 MB)
…
